…
100%|--------------------------------------------------------------------------------------------------------------------------| 1/1 [00:00<00:00,  1.33it/s]
x_train shape: (46025, 85, 85, 1)
y_train shape: (46025, 85, 85, 1)
46025 train samples
19725 test samples
No saved model. Preparing model.
Current epoch:0
__________________________________________________________________________________________________
Layer (type)                    Output Shape         Param #     Connected to
==================================================================================================
input_1 (InputLayer)            (None, 85, 85, 1)    0
__________________________________________________________________________________________________
conv2d_1 (Conv2D)               (None, 85, 85, 32)   832         input_1[0][0]
__________________________________________________________________________________________________
max_pooling2d_1 (MaxPooling2D)  (None, 42, 42, 32)   0           conv2d_1[0][0]
__________________________________________________________________________________________________
batch_normalization_1 (BatchNor (None, 42, 42, 32)   128         max_pooling2d_1[0][0]
__________________________________________________________________________________________________
conv2d_2 (Conv2D)               (None, 42, 42, 64)   51264       batch_normalization_1[0][0]
__________________________________________________________________________________________________
max_pooling2d_2 (MaxPooling2D)  (None, 21, 21, 64)   0           conv2d_2[0][0]
__________________________________________________________________________________________________
batch_normalization_2 (BatchNor (None, 21, 21, 64)   256         max_pooling2d_2[0][0]
__________________________________________________________________________________________________
conv2d_3 (Conv2D)               (None, 21, 21, 128)  204928      batch_normalization_2[0][0]
__________________________________________________________________________________________________
up_sampling2d_1 (UpSampling2D)  (None, 42, 42, 128)  0           conv2d_3[0][0]
__________________________________________________________________________________________________
concatenate_1 (Concatenate)     (None, 42, 42, 192)  0           up_sampling2d_1[0][0]
                                                                 conv2d_2[0][0]
__________________________________________________________________________________________________
batch_normalization_3 (BatchNor (None, 42, 42, 192)  768         concatenate_1[0][0]
__________________________________________________________________________________________________
conv2d_4 (Conv2D)               (None, 42, 42, 64)   307264      batch_normalization_3[0][0]
__________________________________________________________________________________________________
up_sampling2d_2 (UpSampling2D)  (None, 84, 84, 64)   0           conv2d_4[0][0]
__________________________________________________________________________________________________
zero_padding2d_1 (ZeroPadding2D (None, 85, 85, 64)   0           up_sampling2d_2[0][0]
__________________________________________________________________________________________________
concatenate_2 (Concatenate)     (None, 85, 85, 96)   0           zero_padding2d_1[0][0]
                                                                 conv2d_1[0][0]
__________________________________________________________________________________________________
batch_normalization_4 (BatchNor (None, 85, 85, 96)   384         concatenate_2[0][0]
__________________________________________________________________________________________________
conv2d_5 (Conv2D)               (None, 85, 85, 1)    2401        batch_normalization_4[0][0]
==================================================================================================
Total params: 568,225
Trainable params: 567,457
Non-trainable params: 768
__________________________________________________________________________________________________
Train on 46025 samples, validate on 19725 samples
Epoch 1/1
2018-06-27 17:34:45.554190: W D:\Build\tensorflow\tensorflow-r1.3\tensorflow\core\platform\cpu_feature_guard.cc:45] The TensorFlow library wasn't compiled to use AVX instructions, but these are available on your machine and could speed up CPU computations.
…
